unet_segmentation_model.pth (torch, 454540 bytes, 9 tensors)

model.0.conv.weight f4 [16, 1, 3, 3, 3]
-0.14642216 -0.06458621 -0.057493646 0.010231441 0.037805926 -0.1222616 -0.02827265 0.12111884
0.046011187 0.1209644 -0.051093493 -0.05687807 -0.16052765 -0.15893567 0.030308463 -0.15366006
0.007719149 -0.08502346 0.00038390871 0.14376456 0.15767983 0.18525241 -0.012023749 -0.19131865
-0.15582962 -0.013019378 0.07381218 -0.09403541 0.15493922 -0.09922024 0.11207531 -0.0223827
-0.15419824 0.09208819 -0.1471805 0.020935368 0.07834289 -0.1103722 0.1850523 -0.12076655
-0.007365546 0.19241464 0.15408033 0.17700408 -0.12449306 -0.088075005 0.05415366 -0.1833099
0.030003015 0.16232571 0.005299381 0.09048796 0.11501771 0.1855446 -0.09786991 -0.15583576
-0.14429669 -0.09483544 0.18652387 0.047040954 0.071438685 -0.102059156 0.12763569 0.12623036
0.09237777 -0.16631071 -0.010922013 0.16896965 0.10397301 -0.061457586 0.0840235 0.15281276
-0.17777172 0.10673011 -0.081412025 -0.16267526 -0.0052819685 -0.041959453 0.0035274911 -0.14111465
-0.1461863 -0.0072699934 0.058611028 -0.17484437 0.19141006 -0.08586293 0.18139768 -0.17138462
0.010912125 0.030861085 -0.024287814 -0.08665885 -0.030604206 0.17838557 -0.16312604 -0.07867291
0.16934495 0.16820931 -0.120263964 -0.077172376 -0.17660397 -0.11444142 0.11338797 -0.07873483
0.17974983 -0.08839928 -0.13268068 0.10668448 0.11762845 0.1531713 -0.12003236 0.11863534
-0.13328128 0.16645573 -0.086643934 0.16022119 -0.19076245 -0.14248326 -0.07017461 -0.1473433
0.15332678 -0.023931023 -0.117729574 -0.012209601 -0.0027148225 -0.19166124 -0.19059047 -0.0013369357
-0.14255442 0.19216357 -0.1897032 -0.13942772 -0.0013247535 0.009261849 0.18018375 -0.06029331
-0.06361439 -0.13787033 -0.054988306 -0.017084949 0.13367519 0.00499453 -0.16384093 0.101706676
0.015265683 0.030798867 0.016410826 -0.064364016 -0.06649208 -0.07417298 -0.16141513 -0.10632801
-0.16937095 -0.12881278 -0.12771586 -0.072085 -0.087691694 -0.07120947 0.01857782 0.12818076
-0.044314455 0.03819947 0.15933931 0.111296296 0.08853604 -0.11056672 -0.09901801 0.1685818
0.09065968 0.043934494 -0.009581842 -0.16811779 -0.19010645 0.1367421 -0.1459667 0.006965165
0.16776438 -0.16083065 0.13389474 -0.09705414 -0.14731462 0.08684624 -0.10954163 -0.1907906
-0.09149632 -0.16801617 -0.08079911 -0.0578043 0.087358184 0.1876761 0.003781664 -0.037221596
0.025729846 -0.08975104 0.078922376 -0.116511896 0.03167231 0.011235031 0.1320312 0.10810472
0.1280314 0.15614064 0.15194276 -0.048661474 -0.050423086 -0.18971574 -0.11783711 0.15841506
-0.100478925 -0.105669424 0.16501813 0.011933106 0.10882854 -0.0049786083 0.023375714 -0.13240355
-0.19171393 -0.04677653 0.019678064 0.11347609 -0.011984587 -0.087189175 -0.15922864 0.03596725
-0.07601187 -0.03676228 0.1496464 0.13813664 0.0944008 -0.09636715 -0.07866633 -0.029952154
-0.033986866 -0.17006406 0.100985706 -0.026376393 -0.025165705 -0.18890372 -0.091470234 0.18978973
0.1205356 -0.047802072 0.17723745 0.022600876 -0.035380375 0.14001408 -0.072163574 -0.18073149
0.10097901 0.1620754 0.06849477 0.05802544 -0.14497708 0.0636322 -0.097899295 0.08622653
00000000: b1ef 15be c645 84bd 757e 6bbd c6a1 273c
00000010: 63da 1a3d 4a64 fabd 0b9c e7bc 280d f83d
00000020: 3a76 3c3d 2fbc f73d 6947 51bd fbf8 68bd
00000030: 5c61 24be 08c0 22be 7449 f83c 1059 1dbe
00000040: eaf0 fc3b c820 aebd 5b47 c939 0437 133e
00000050: d276 213e cfb2 3d3e 42ff 44bc 09e9 43be
00000060: cd91 1fbe 3b4f 55bc d72a 973d a395 c0bd
00000070: 63a8 1e3e fb33 cbbd bd87 e53d ed5b b7bc
00000080: 25e6 1dbe bc98 bc3d 7cb6 16be a680 ab3c
00000090: 3d72 a03d d20a e2bd 5a7e 3d3e 7454 f7bd
000000a0: ae5a f1bb 5808 453e 3cc7 1d3e 8f40 353e
000000b0: 38f6 febd ab60 b4bd 3ad0 5d3d 97b5 3bbe
000000c0: e2c8 f53c b638 263e 6ea6 ad3b c051 b93d
000000d0: 688e eb3d 67ff 3d3e 0570 c8bd 6993 1fbe
000000e0: 83c2 13be 1539 c2bd 1d00 3f3e 04ae 403d
000000f0: 724e 923d 6404 d1bd eeb2 023e 8842 013e
00000100: 8e30 bd3d 5b4d 2abe 3ef2 32bc 6106 2d3e
00000110: cdef d43d f3ba 7bbd 8314 ac3d f37a 1c3e
00000120: ca09 36be 5195 da3d 59bb a6bd 5894 26be
00000130: 5d14 adbb addd 2bbd 7b2d 673b 5c80 10be
00000140: ddb1 15be 2039 eebb 1e12 703d 670a 33be
00000150: 0001 443e e7d8 afbd 50c0 393e 737f 2fbe
00000160: c5c8 323c 63d0 fc3c 3df7 c6bc 327a b1bd
00000170: acb5 fabc b5aa 363e 830a 27be 431f a1bd
00000180: c368 2d3e 103f 2c3e f44c f6bd 8d0c 9ebd
00000190: acd7 34be 4360 eabd f437 e83d ba3f a1bd
000001a0: 5710 383e af0a b5bd 72dd 07be 657d da3d
000001b0: 2fe7 f03d f0d8 1c3e 87d3 f5bd 16f7 f23d
000001c0: e37a 08be 5f73 2a3e 6072 b1bd 0611 243e
000001d0: 3b57 43be 22e7 11be b5b7 8fbd 29e1 16be
000001e0: b201 1d3e fe0a c4bc 341c f1bd c70a 48bc
000001f0: 2aeb 31bb d842 44be 262a 43be 1e3c afba
00000200: c9f9 11be 87c6 443e 8e41 42be 24c6 0ebe
00000210: 5aa3 adba 03bf 173c 1782 383e 1ef6 76bd
00000220: 4348 82bd e12d 0dbe 6b3b 61bd bcf5 8bbc
00000230: 26e2 083e 28a9 a33b ebc5 27be 974b d03d
00000240: ea1c 7a3c e84d fc3c ff6f 863c 48d1 83bd
00000250: 002d 88bd 01e8 97bd 024a 25be 80c2 d9bd
00000260: 946f 2dbe 7fe7 03be f2c7 02be 4da1 93bd
00000270: b497 b3bd 45d6 91bd 8330 983c d141 033e
00000280: 1383 35bd 0c77 1c3d d829 233e 50ef e33d
00000290: 6252 b53d ce70 e2bd f4c9 cabd b5a0 2c3e
000002a0: c8ab b93d a8f4 333d 29fd 1cbc 1227 2cbe
000002b0: 44ab 42be 1f06 0c3e 4b78 15be 0a3c e43b
000002c0: 6dca 2b3e cab0 24be b41b 093e 52c4 c6bd
000002d0: a5d9 16be 71dc b13d 5d57 e0bd 9c5e 43be
000002e0: 6c62 bbbd 6e0c 2cbe 017a a5bd 34c4 6cbd
000002f0: d9e8 b23d 2a2e 403e cbd5 773b ac75 18bd
00000300: 66c7 d23c 65cf b7bd 0ea2 a13d ca9d eebd
00000310: d3ba 013d 2313 383c 3033 073e 0266 dd3d
00000320: aa1a 033e 55e3 1f3e e296 1b3e 4151 47bd
00000330: 7088 4ebd d844 42be 9554 f1bd 8f37 223e
00000340: e5c7 cdbd 3669 d8bd 83fa 283e 1383 433c
00000350: 7fe1 de3d 9823 a3bb 6d7e bf3c cc94 07be
00000360: a850 44be bf98 3fbd e433 a13c 2766 e83d
00000370: 005b 44bc 3d90 b2bd d50c 23be 6552 133d
00000380: 1cac 9bbd 0b94 16bd e83c 193e b173 0d3e
00000390: 3555 c13d 245c c5bd d01b a1bd 385e f5bc
000003a0: d035 0bbd 4625 2ebe 98d1 ce3d 4e13 d8bc
000003b0: 4f28 cebc fa6f 41be bf54 bbbd 3d58 423e
000003c0: 5edb f63d 1bcc 43bd bc7d 353e 7925 b93c
000003d0: 03eb 10bd da5f 0f3e 7fca 93bd ad11 39be
000003e0: 15ce ce3d 18f7 253e fc46 8c3d 15ac 6d3d
000003f0: df74 14be 9951 823d 6d7f c8bd 8997 b03d

model.0.conv.bias f4 [16]
0.063356735 -0.021743702 0.1423782 0.05273459 -0.10415799 0.14799108 0.17448103 -0.01842069
0.07238042 -0.1856735 -0.11076083 -0.18498349 0.05542638 0.06707216 0.16437091 0.06328497
00000000: 2dc1 813d d91f b2bc 97cb 113e 3a00 583d
00000010: c950 d5bd f98a 173e 28ab 323e fde6 96bc
00000020: 303c 943d 3221 3ebe 93d6 e2bd 506c 3dbe
00000030: c606 633d 215d 893d d950 283e 8d9b 813d

model.1.submodule.0.conv.weight f4 [32, 16, 3, 3, 3]
0.025063075 0.043612998 0.016444022 -0.032897513 0.020295102 0.030132849 -0.004549487 -0.0009050096
0.047512818 -0.019283326 0.041116428 -0.044528957 0.0136524355 0.043038893 -0.010966549 -0.022999177
0.010701898 0.0012616978 -0.025153225 -0.002971123 0.02582062 0.0041057286 -0.019256944 0.036455378
-0.045204356 0.014225356 0.022768686 -0.013474218 0.012973822 -0.04608288 0.03904953 -0.004707155
0.038873494 0.035707302 -0.04266413 0.04722997 -0.026660813 -0.035534423 0.029659552 -0.018133935
-0.006094849 -0.004649628 0.015925445 -0.008235937 0.03502056 -0.016641527 -0.025597569 -0.021974284
-0.030197546 0.03305693 -0.03330446 0.0013743308 0.047569524 0.0053149415 0.021636276 -0.03342568
-0.03836202 0.024269236 -0.016294727 -0.019264383 0.03603307 0.0380959 -0.023642631 0.031327177
-0.0302399 -0.042542353 0.033375826 0.014479558 0.018274965 0.017061833 -0.033971548 -0.03205146
-0.016167223 0.03996735 0.018193223 -0.021888705 -0.0184141 0.0065952623 -0.021327026 0.002350483
-0.005403325 0.028977457 -0.008494456 0.04486956 -0.01773462 0.0021665068 -0.03827518 0.012721433
-0.021915598 -0.019313386 -0.017495137 -0.038087685 0.006047555 -0.003174944 0.045 -0.027718507
0.010792226 0.004235247 -0.016874416 0.008009248 -0.009325479 -0.04413305 -0.03308348 -0.03235873
0.01791101 0.041408572 -0.0430644 0.036390103 0.0040491773 -0.03937374 -0.029214831 -0.034645814
-0.044088554 0.042882867 0.0050206147 -0.046298787 0.03862844 -0.012595562 0.032988604 0.018101329
-0.019146599 -0.046620686 0.040537592 0.027722895 0.040246814 -0.031548142 -0.030765735 -0.038416035
0.01766264 -0.04509999 -0.014079618 -0.03940111 0.023142831 0.013026921 0.017076103 -0.04502103
-0.0002712471 -0.038100634 0.029993035 -0.0032672046 -0.043482807 -0.035216134 0.002135891 0.021843905
0.01615195 0.008603298 0.02197083 0.044677045 -0.03623839 -0.035006333 -0.028393462 0.033207893
-0.04556989 0.01042889 -0.016895242 0.026647514 -0.026593842 0.02748236 -0.04645512 -0.009692755
-0.028286582 -0.041645844 0.04766603 -0.002346388 -0.039231565 0.038183317 -0.014735044 0.017815525
-0.005367197 -0.03883069 -0.013750719 0.033034813 0.00068087934 -0.005609096 0.035584528 0.016863404
0.032944795 -0.034740366 0.04673594 0.012936301 0.0400674 -0.029183453 0.023389148 0.035221178
0.007897912 0.00043822927 -0.031453203 0.03220994 -0.025406985 0.047732726 0.005727763 -0.038990308
-0.016322441 0.02461505 -0.029061787 -0.0061928052 0.026206572 -0.041208263 -0.04708822 -0.047808465
0.0089601185 -0.04606192 0.0041304315 0.040431038 -0.022346474 0.0030305136 -0.044377252 -0.036233857
-0.028986577 0.012310144 0.0060851336 -0.032532893 -0.005049011 0.0009692124 0.029206365 0.0014969091
-0.012812873 0.01669582 0.020027962 0.021134498 0.017581668 0.014752141 -0.024084955 0.016756741
0.025149785 0.0246944 0.038898245 -0.040003903 0.025151815 0.005729334 0.019656418 0.04621398
0.026938673 0.01768221 -0.037910115 -0.023057707 0.020761795 0.003486695 -0.018764846 -0.03229381
0.042034846 0.038222015 0.029459247 0.014323238 0.024127439 -0.01621734 0.03860097 -0.04289379
0.019068362 0.044691693 0.012862525 0.026011439 0.021311678 0.040111568 -0.0020445595 -0.014253759
00000000: 1451 cd3c 8ba3 323d 9db5 863c 8bbf 06bd
00000010: ea41 a63c 2ad9 f63c dd13 95bb 2b3e 6dba
00000020: cd9c 423d 11f8 9dbc b369 283d ff63 36bd
00000030: 77ae 5f3c 8d49 303d 0aad 33bc c568 bcbc
00000040: 0357 2f3c 8e5f a53a 230e cebc 2cb7 42bb
00000050: c485 d33c 5989 863b bdc0 9dbc 3c52 153d
00000060: 3428 39bd 7811 693c 6585 ba3c f7c2 5cbc
00000070: 2790 543c 67c1 3cbd 66f2 1f3d 7a3e 9abb
00000080: d039 1f3d d241 123d 95c0 2ebd 3774 413d
00000090: c767 dabc 8b8c 11bd 97f8 f23c 9e8d 94bc
000000a0: 4db7 c7bb e85b 98bb 1476 823c 06f0 06bc
000000b0: b871 0f3d d053 88bc feb1 d1bc 6a03 b4bc
000000c0: d860 f7bc b466 073d 426a 08bd e422 b43a
000000d0: 43d8 423d f628 ae3b 8f3e b13c 5ee9 08bd
000000e0: 7e21 1dbd 47d0 c63c 857c 85bc 57d0 9dbc
000000f0: 6a97 133d 720a 1c3d 31ae c1bc ed50 003d
00000100: abb9 f7bc e440 2ebd 17b5 083d ab3b 6d3c
00000110: 61b5 953c 42c5 8b3c c025 0bbd 6448 03bd
00000120: 2071 84bc ceb4 233d f409 953c f14f b3bc
00000130: 2bd9 96bc 121d d83b 04b6 aebc 900a 1a3b
00000140: 600e b1bb 2262 ed3c 552c 0bbc 25c9 373d
00000150: 3248 91bc f4fb 0d3b 6fc6 1cbd 8f6d 503c
00000160: 5788 b3bc 1b37 9ebc f651 8fbc d501 1cbd
00000170: 912a c63b b912 50bb ec51 383d ec11 e3bc
00000180: e0d1 303c d4c7 8a3b 373c 8abc 3939 033c
00000190: e5c9 18bc dbc4 34bd 8b82 07bd 968a 04bd
000001a0: 1cba 923c 099c 293d 4c64 30bd ca0d 153d
000001b0: f6ae 843b 5c46 21bd f153 efbc c5e8 0dbd
000001c0: 3396 34bd f2a5 2f3d f883 a43b cca3 3dbd
000001d0: db38 1e3d 9e5d 4ebc 0f1f 073d 3d49 943c
000001e0: 54d9 9cbc 55f5 3ebd bf0a 263d 201b e33c
000001f0: d8d9 243d a038 01bd 6c08 fcbc 225a 1dbd
00000200: 3eb1 903c c4ba 38bd 33ae 66bc 0f63 21bd
00000210: 0996 bd3c de6e 553c 2fe3 8b3c f967 38bd
00000220: 2b36 8eb9 690f 1cbd f4b3 f53c 991e 56bb
00000230: 071b 32bd cb3e 10bd 4efa 0b3b fdf1 b23c
00000240: 1851 843c d9f4 0c3c 2cfc b33c 47ff 363d
00000250: b56e 14bd cd62 0fbd 6899 e8bc 0005 083d
00000260: 7ea7 3abd efdd 2a3c e467 8abc e34b da3c
00000270: 54db d9bc b022 e13c b947 3ebd 5cce 1ebc
00000280: 43b9 e7bc d594 2abd 743d 433d dcc5 19bb
00000290: 47b1 20bd 1c66 1c3d 416b 71bc ddf1 913c
000002a0: 50df afbb ee0c 1fbd b24a 61bc 834f 073d
000002b0: 0a7d 323a 82cc b7bb 15c1 113d 1f25 8a3c
000002c0: 1ff1 063d ea4b 0ebd 2f6e 3f3d c7f2 533c
000002d0: b71d 243d 2312 efbc 999a bf3c 1544 103d
000002e0: 3e66 013c 23c2 e539 13d5 00bd 92ee 033d
000002f0: 4f22 d0bc 6483 433d f5af bb3b 4db4 1fbd
00000300: a4b6 85bc 80a5 c93c fc12 eebc 04ed cabb
00000310: 2aaf d63c ffc9 28bd 94df 40bd cfd2 43bd
00000320: 76cd 123c 6cab 3cbd 9258 873b 049b 253d
00000330: f40f b7bc 959b 463b ecc4 35bd f469 14bd
00000340: 4275 edbc 7cb0 493c cd65 c73b 3641 05bd
00000350: 2d72 a5bb be12 7e3a 3042 ef3c ef33 c43a
00000360: 16ed 51bc acc5 883c ae11 a43c 4122 ad3c
00000370: 6e07 903c f7b2 713c d04d c5bc 6f45 893c
00000380: ec06 ce3c e94b ca3c c453 1f3d 22db 23bd
00000390: 2e0b ce3c 23bd bb3b 7f06 a13c df4a 3d3d
000003a0: 7eae dc3c 48da 903c a347 1bbd 84e3 bcbc
000003b0: a414 aa3c 0981 643b bcb8 99bc 8446 04bd
000003c0: bb2c 2c3d b08e 1c3d 8554 f13c 04ac 6a3c
000003d0: e8a6 c53c 3ada 84bc 0d1c 1e3d 66b1 2fbd
000003e0: 4135 9c3c a30e 373d 57bd 523c f115 d53c
000003f0: d495 ae3c 074c 243d 04fe 05bb 9988 69bc

model.1.submodule.0.conv.bias f4 [32]
0.013923384 -0.020949014 0.0010590641 -0.040862244 -0.0076998146 -0.017218085 0.010616685 0.03382278
-0.018694306 0.044347785 0.017098736 0.036174256 0.033757262 0.006915106 0.03641774 0.0013490948
-0.020342821 -0.007493017 0.041803602 -0.03549151 0.02887816 0.029835414 0.045482263 0.0228331
-0.023100844 -0.015181578 -0.042045973 -0.04201476 0.020916792 -0.02462834 -0.007561355 0.03431197
00000000: e81e 643c 449d abbc 4bd0 8a3a 2b5f 27bd
00000010: ba4e fcbb f10c 8dbc 9bf1 2d3c c189 0a3d
00000020: cd24 99bc 06a6 353d a612 8c3c 752b 143d
00000030: 0e45 0a3d 1d98 e23b c52a 153d 1cd4 b03a
00000040: fda5 a6bc fb87 f5bb 413a 2b3d 8c5f 11bd
00000050: e491 ec3c 6669 f43c 9c4b 3a3d 7b0c bb3c
00000060: fb3d bdbc 27bc 78bc 6638 2cbd ab17 2cbd
00000070: b159 ab3c 5fc1 c9bc 3ec5 f7bb b58a 0c3d

model.1.submodule.1.submodule.conv.weight f4 [64, 32, 3, 3, 3]
-0.028941886 0.026478829 -0.031733792 -0.029094761 -0.033796452 -0.031761575 -0.019704258 0.021843538
-0.0015155509 0.00015112723 0.010981163 -0.005686288 -0.033807397 0.0124556795 -0.01610507 -0.026986549
0.011815639 -0.030057313 0.0023778772 0.022044646 -0.032393426 -0.028406136 -0.017088886 -0.0059011728
-0.0024764684 -0.023986703 -0.00033664986 0.019230558 -0.019820359 0.03024499 0.032650214 0.022023054
-0.030941013 -0.027563069 0.016535988 -0.0076999897 0.021105917 0.00018611879 0.009544899 0.006888196
-0.0004345435 0.010425698 0.0009231601 0.0003802717 0.030751377 0.012086649 -0.024476146 0.028022777
0.021551065 0.018715499 -0.024426328 -0.015722107 -0.009540369 0.00998203 0.029290086 0.019458061
-0.013539043 -0.001720958 -0.00694364 0.025747994 -0.016859738 0.0015033152 -0.025359428 0.01493551
-0.033522576 -0.016613945 -0.0014308947 0.015589769 -0.019294394 -0.010889519 0.02388863 -0.011226635
0.023752289 -0.003888018 0.007945714 0.013922405 -0.012537805 0.01483191 -0.018922297 -0.028279848
-0.032141604 0.024689207 -0.026340457 0.011075244 0.0123135885 -0.030056093 -0.0087164 -0.031738333
0.024193749 0.032301214 0.023698164 -0.014094626 0.033756625 0.033942398 0.030461175 -0.0002854035
-0.031242302 -0.015518962 -0.029648842 -0.01203486 0.018353242 0.016927198 -0.01847615 0.023088641
0.010775958 0.0039901496 -0.0031798687 0.02258854 -0.0012004322 0.02815759 0.030164238 0.031980798
-0.01073748 0.032041814 -0.0022763459 -0.012730786 0.004518706 0.021686867 0.0015643031 -0.020393906
-0.016456379 -0.016184375 -0.01667647 -0.016553352 -0.027779706 0.024781734 0.0152154425 -0.033690967
0.031772323 -0.018843519 0.008421186 0.029192181 -0.017300725 0.013268094 0.03313672 -0.024759628
0.015145873 0.0005194998 -0.020385249 0.0012264973 0.029616548 0.017062854 -0.029665288 0.02606574
0.0015383027 0.0039909445 -0.015152305 -0.027577203 -0.010475914 0.018270371 -0.016828299 0.022527592
-0.019386787 0.032745637 2.6207174e-05 0.033931997 -0.0054487847 -0.028523505 0.011879077 -0.030669812
-0.006889709 0.007826593 0.014155727 0.010863028 -0.008105524 0.0069252034 0.012677216 0.0075865756
0.029314395 -0.013834537 0.022211144 0.024736272 -0.011114109 0.02544484 -0.0005501479 0.013750481
-0.007270167 -0.0023185888 -0.007557221 -0.011060599 -0.013906572 0.016912578 0.004990204 -0.0005373566
-0.022743598 0.008156746 0.0238491 -0.02598499 -0.018355433 -0.0334661 -0.016240735 0.023918876
0.028586349 0.0047051692 0.025074316 0.020607831 -0.013586765 -0.008810092 0.020455709 0.031097408
0.0064623435 0.02074935 0.02240242 0.021125201 0.015441914 0.021600487 0.020856814 0.00214342
-0.018080274 -0.00028460455 0.027916878 -0.0026684923 0.011275878 -0.0058143223 -0.020262813 0.020304494
-0.026932308 -0.02370103 0.013914221 0.00041649616 -0.02892354 0.016827185 0.026417498 -0.006599297
0.026382014 0.023717437 -0.010613431 0.014806997 0.027760755 0.01371338 0.03345997 -0.013188916
-0.0023744502 0.032915603 0.01658058 0.020776724 0.002958211 0.001053547 0.026057946 0.014803813
0.012830347 -0.026337387 -0.0056295097 0.030263908 0.0092130955 0.017946752 -0.011271941 0.026590792
0.0246389 5.3618856e-05 0.028442454 0.009049169 -0.018841235 0.022225419 0.026787333 0.015750961
00000000: 8917 edbc 21ea d83c 4bfb 01bd 2358 eebc
00000010: 266e 0abd 6d18 02bd d36a a1bc 38f1 b23c
00000020: 73a5 c6ba e877 1e39 56ea 333c 0a54 babb
00000030: a079 0abd e812 4c3c c8ee 83bc e512 ddbc
00000040: 6296 413c c13a f6bc 29d6 1b3b f996 b43c
00000050: f8ae 04bd fcb3 e8bc fefd 8bbc a05e c1bb
00000060: 3f4c 22bb c37f c4bc 6180 b0b9 6789 9d3c
00000070: 4e5e a2bc 57c4 f73c 3bbc 053d b169 b43c
00000080: 0278 fdbc f2cb e1bc 7b76 873c 3250 fcbb
00000090: 51e6 ac3c e228 4339 3562 1c3c 60b6 e13b
000000a0: 71d3 e3b9 8cd0 2a3c 3a00 723a 345f c739
000000b0: 50ea fb3c 1507 463c 3382 c8bc 0690 e53c
000000c0: dc8b b03c 3f51 993c b919 c8bc a6cb 80bc
000000d0: 354f 1cbc ab8b 233c c3f1 ef3c 8366 9f3c
000000e0: ddd2 5dbc c591 e1ba 7987 e3bb 75ed d23c
000000f0: 6f1d 8abc e30a c53a 93be cfbc 12b4 743c
00000100: f84e 09bd f819 88bc dc8c bbba 3b6c 7f3c
00000110: 470f 9ebc f469 32bc 17b2 c33c ecef 37bc
00000120: 2994 c23c 1ece 7ebb bd2e 023c cd1a 643c
00000130: 5e6b 4dbc 8a01 733c ef02 9bbc 24ab e7bc
00000140: eaa6 03bd 0541 ca3c f1c7 d7bc f174 353c
00000150: efbe 493c 3238 f6bc 3bcf 0ebc 0e00 02bd
00000160: f831 c63c 474e 043d a722 c23c 25ed 66bc
00000170: 6344 0a3d 2f07 0b3d b789 f93c 36a2 95b9
00000180: dbef ffbc 3f43 7ebc 21e2 f2bc dd2d 45bc
00000190: 8a59 963c e8aa 8a3c 4c5b 97bc 6424 bd3c
000001a0: a58d 303c cdbf 823b 5865 50bb 9a0b b93c
000001b0: d257 9dba bfaa e63c fe1a f73c 4cfe 023d
000001c0: 41ec 2fbc 473e 033d bf2e 15bb c994 50bc
000001d0: a711 943b a8a8 b13c 4d09 cd3a 1f11 a7bc
000001e0: 87cf 86bc 1895 84bc 189d 88bc e59a 87bc
000001f0: 4492 e3bc 1003 cb3c 314a 793c 8aff 09bd
00000200: b223 023d b95d 9abc 04f9 093c 7124 ef3c
00000210: 40ba 8dbc 6b62 593c 5fba 073d b4d4 cabc
00000220: 6526 783c 0b2f 083a f7fe a6bc 6cc2 a03a
00000230: 679e f23c 66c7 8b3c 9e04 f3bc d287 d53c
00000240: e0a0 c93a 78c6 823b 6041 78bc 96e9 e1bc
00000250: 2ba3 2bbc bfab 953c 80db 89bc c98b b83c
00000260: 0ad1 9ebc 4a20 063d 7ad7 db37 47fc 0a3d
00000270: b88b b2bb 20aa e9bc 76a0 423c 423f fbbc
00000280: 11c3 e1bb 1c3b 003c 6ced 673c d7fa 313c
00000290: 08cd 04bc d1ec e23b 19b4 4f3c cf98 f83b
000002a0: be24 f03c 41aa 62bc 25f4 b53c b9a3 ca3c
000002b0: f417 36bc b271 d03c cd37 10ba b349 613c
000002c0: 953a eebb 77f3 17bb 91a2 f7bb 8437 35bc
000002d0: 64d8 63bc 3f8c 8a3c dd84 a33b 64dd 0cba
000002e0: c850 babc dfa3 053c 305f c33c 79de d4bc
000002f0: 225e 96bc c013 09bd 4a0b 85bc 85f1 c33c
00000300: eb2d ea3c d22d 9a3b a768 cd3c c1d1 a83c
00000310: 069b 5ebc 3458 10bc bb92 a73c febf fe3c
00000320: 11c2 d33b 8afa a93c 4885 b73c c20e ad3c
00000330: 1500 7d3c 81f3 b03c e9db aa3c 9f78 0c3b
00000340: 151d 94bc fa36 95b9 f0b1 e43c dfe1 2ebb
00000350: 76be 383c 1286 bebb 33fe a5bc 9c55 a63c
00000360: 25a1 dcbc aa28 c2bc 79f8 633c 2b5d da39
00000370: 0ff1 ecbc 2ad9 893c 8269 d83c ea3e d8bb
00000380: 181f d83c 124b c23c f5e3 2dbc 0c99 723c
00000390: 866a e33c 16ae 603c 520d 093d 5316 58bc
000003a0: aa9c 1bbb 83d2 063d ffd3 873c f333 aa3c
000003b0: 8bde 413b 2c17 8a3a 7977 d53c b18b 723c
000003c0: 6036 523c 81c1 d7bc c077 b8bb 04ec f73c
000003d0: 86f2 163c 1105 933c f2ad 38bc efd4 d93c
000003e0: 85d7 c93c cfe4 6038 2600 e93c f742 143c
000003f0: ef58 9abc 1512 b63c 1c71 db3c 2908 813c

model.1.submodule.1.submodule.conv.bias f4 [64]
-0.01239371 -0.028639011 0.03374737 -0.026841292 -0.018361853 -0.017272612 -0.020019796 -0.02892137
0.016098749 0.018034434 0.027095273 0.004009138 0.0029793647 0.0048915474 -0.00770379 -0.02811256
-0.013438741 0.032058526 0.005151908 0.030888038 0.031128215 0.02795565 0.00839553 0.033893757
0.029497253 -0.025563601 -0.030627621 -0.029713275 0.03011156 -0.025839277 0.021317147 -0.03299726
-0.018819502 -0.03349244 0.018972766 -0.010682388 -0.01016198 -0.020226374 0.018245239 0.031603877
0.027690042 -0.008736503 -0.0140946135 0.003725093 0.003638843 -0.012001641 -0.00442486 0.025108743
0.00043862342 0.0109272925 -0.022735223 0.0014297104 -0.027275978 -0.028226404 0.026557513 0.026852665
0.010520757 0.025821147 -0.0037211755 -0.0088218935 -0.009193414 0.0031647088 0.0064439517 0.021976229
00000000: fd0e 4bbc 5c9c eabc af3a 0a3d 45e2 dbbc
00000010: 996b 96bc 4b7f 8dbc 8e00 a4bc 82ec ecbc
00000020: 86e1 833c f3bc 933c e8f6 dd3c 165f 833b
00000030: 7241 433b 4649 a03b 1370 fcbb 504c e6bc
00000040: 2a2e 5cbc cd4f 033d 56d1 a83b e908 fd3c
00000050: 9900 ff3c 3f03 e53c 688d 093c 2ed4 0a3d
00000060: 39a4 f13c c26a d1bc c7e6 fabc 4169 f3bc
00000070: 85ac f63c e4ac d3bc 4ca1 ae3c 2328 07bd
00000080: 5b2b 9abc 5e2f 09bd c66c 9b3c 2f05 2fbc
00000090: 6f7e 26bc c8b1 a5bc 0a77 953c 1173 013d
000000a0: 3ad6 e23c 8d23 0fbc 18ed 66bc b120 743b
000000b0: a879 6e3b 88a2 44bc 6afe 90bb dab0 cd3c
000000c0: 0af7 e539 6308 333c 383f babc 1f65 bb3a
000000d0: df71 dfbc 0f3b e7bc 248f d93c 1ffa db3c
000000e0: 415f 2c3c df86 d33c f7de 73bb b489 10bc
000000f0: f99f 16bc 0167 4f3b c927 d33b 7e07 b43c

model.1.submodule.2.conv.weight f4 [96, 16, 3, 3, 3]
-0.014559648 -0.042593244 -0.008594661 0.031429566 -0.028947202 0.030821906 0.005891791 0.009379524
-0.031740468 -0.007686772 -0.034981932 0.021285588 0.0136439875 -0.033400845 0.025195966 -0.011533453
0.04560994 0.025009604 0.01177932 0.030568434 0.021345414 -0.023919562 -0.01213656 0.0361739
-0.003998166 -0.019714288 0.041488852 -0.03961779 0.022643015 -0.0030101298 -0.02646056 -0.024049832
0.035564467 0.047166683 0.02992195 -0.02517435 0.024045197 -0.011304442 -0.028215032 0.03167848
0.046560377 0.039497793 0.047965094 0.005659419 -0.016688904 0.025680607 -0.043764412 0.030083116
0.043502603 0.025332516 0.012061276 0.035423737 -0.002595261 -0.017238073 0.03467631 -0.04600457
0.04023687 -0.029526915 0.036512423 0.042701382 0.04178808 -0.021512259 0.027140785 0.039268713
0.024362426 -0.040395755 0.01743021 -0.0121788755 -0.040028833 -0.014416387 -0.042862993 0.03241908
-0.017789984 0.0087294495 0.038320035 0.018766379 0.017074257 -0.036080405 0.04593423 -0.0074520656
-0.04420804 -0.04357954 -0.004816742 -0.00077616255 -0.044055495 -0.014382778 -0.043283734 0.04039296
-0.043075345 0.03906641 0.03205943 0.0028882972 0.031054646 -0.04089979 -0.004055595 -0.03981766
-0.0015185777 0.021460846 0.038545117 -0.0030336566 0.0010187553 0.035228826 0.031102337 0.04520543
-0.00929012 -0.02153738 -0.0013856355 -0.0095045855 -0.02153676 0.02790187 0.028996717 -0.008122828
0.022979556 0.03560906 0.038751736 0.03742189 0.03366599 -0.03422936 -0.020344399 0.005614327
-0.042654917 -0.04325987 0.034211017 0.008291238 0.028542314 0.027272627 0.0384675 0.038622648
0.02050168 0.022549601 -0.043955576 0.015998928 0.036441058 -0.004272889 0.03802183 0.037349258
-0.04678987 -0.032202035 0.04113518 0.013246038 0.03882636 -0.01593863 0.03924824 -0.01251342
-0.0438063 0.025249869 0.007831443 -0.017377812 0.0072761076 0.0104228845 0.022725629 0.046010867
0.009295878 -0.030507231 0.00053478 -0.011098046 -0.009630755 -0.030458784 0.008946308 0.01429931
0.02076622 0.046835035 0.047948252 0.04178336 0.0034699473 -0.04038853 0.036650363 -0.014767117
0.037155643 0.012623139 0.021361267 0.035788324 -0.015602618 -0.012460728 -0.026499722 -0.02551082
0.017347604 -0.010977658 -0.022527589 -0.040049303 -0.0020347806 0.033537623 -0.023606671 0.044479165
0.047522638 -0.04203687 -0.0014895563 -0.021196922 -0.022304228 0.008861228 -0.03277684 -0.0040921704
0.027959798 0.04607796 -0.023867806 0.007859599 0.02123223 0.0139813125 0.020096568 0.0075795706
-0.031970188 -0.028475702 0.03888561 -0.03076165 -0.015359183 -0.0073661827 -0.008773934 -0.04521784
0.020740673 -0.048022933 -0.007783959 -0.033988602 0.040357515 0.01630289 0.011637041 -0.036316805
-0.02901409 -0.019665021 0.033395372 0.032149326 0.03595208 0.016449401 0.0037417451 -0.043566275
-0.0477232 -0.04699061 -0.03620602 -0.00019318175 -0.007601973 -0.005636976 0.043994065 -0.003469259
-0.027849521 0.02736495 -0.03651913 -0.033107564 -0.022474943 -0.032271866 -0.04291352 0.026052253
-0.04640543 -0.01213348 -0.027150318 0.044904828 -0.040475857 -0.026604211 0.02563669 -0.019463155
0.0012604934 -0.005319811 0.0040900423 0.003889049 -0.026936494 0.016087633 0.0072961757 -0.034477163
00000000: 978b 6ebc 4176 2ebd 9fd0 0cbc 4abc 003d
00000010: af22 edbc 397e fc3c ed0f c13b 93ac 193c
00000020: 4b02 02bd 51e1 fbbb 3749 0fbd 1d5f ae3c
00000030: 088b 5f3c 53cf 08bd c567 ce3c cff6 3cbc
00000040: 7dd1 3a3d f1e0 cc3c 0dfe 403c a76a fa3c
00000050: 94dc ae3c f5f2 c3bc 6cd8 46bc 152b 143d
00000060: 0c03 83bb dc7f a1bc 37f0 293d 4446 22bd
00000070: d87d b93c 9945 45bb d1c3 d8bc 2704 c5bc
00000080: 0cac 113d da31 413d e11e f53c 703a cebc
00000090: 6ffa c43c 4436 39bc 3623 e7bc 4bc1 013d
000000a0: 18b6 3e3d 70c8 213d 0c77 443d a672 b93b
000000b0: 2bb7 88bc 2360 d23c 5042 33bd de70 f63c
000000c0: c92f 323d 2386 cf3c a89c 453c 7b18 113d
000000d0: 4115 2abb dc36 8dbc bf08 0e3d 4a6f 3cbd
000000e0: 6bcf 243d 6ee2 f1bc 0d8e 153d a5e7 2e3d
000000f0: fa29 2b3d 7a3a b0bc 5a56 de3c 3bd8 203d
00000100: b693 c73c 0576 25bd cdc9 8e3c e889 47bc
00000110: 46f5 23bd b632 6cbc 1b91 2fbd dfc9 043d
00000120: 4dbc 91bc f705 0f3c 78f5 1c3d f3bb 993c
00000130: 50df 8b3c 0cc9 13bd 8825 3c3d 7530 f4bb
00000140: 7d13 35bd 7680 32bd c3d5 9dbb 6377 4bba
00000150: 8973 34bd bea5 6bbc 494a 31bd 1773 253d
00000160: c66f 30bd 1a04 203d c050 033d 9649 3d3b
00000170: 5066 fe3c 8a86 27bd cce4 84bb d817 23bd
00000180: 030b c7ba a8ce af3c 7ce1 1d3d 50d0 46bb
00000190: c187 853a 1a4c 103d 54ca fe3c 5429 393d
000001a0: 9635 18bc 296f b0bc 369e b5ba 1fb9 1bbc
000001b0: dc6d b0bc 7692 e43c 868a ed3c 9c15 05bc
000001c0: 9f3f bc3c ceda 113d 24ba 1e3d b247 193d
000001d0: 59e5 093d 1634 0cbd 4ca9 a6bc 63f8 b73b
000001e0: ecb6 2ebd 4331 31bd da20 0c3d f9d7 073c
000001f0: 92d1 e93c d86a df3c 1990 1d3d c832 1e3d
00000200: 24f3 a73c f1b9 b83c c30a 34bd 2f10 833c
00000210: 3843 153d 9703 8cbb c7bc 1b3d 89fb 183d
00000220: bca6 3fbd 48e6 03bd 5d7d 283d e905 593c
00000230: 6408 1f3d bb91 82bc c3c2 203d 1605 4dbc
00000240: 3c6e 33bd d0d8 ce3c 744f 003c ea5b 8ebc
00000250: 6a6c ee3b bfc4 2a3c 192b ba3c e475 3c3d
00000260: bd4d 183c 4dea f9bc 7a30 0c3a 94d4 35bc
00000270: 50ca 1dbc b384 f9bc 8993 123c a747 6a3c
00000280: eb1d aa3c 18d6 3f3d 6365 443d 0725 2b3d
00000290: 0e68 633b 716e 25bd b11e 163d c7f1 71bc
000002a0: 8430 183d 48d1 4e3c d3fd ae3c c796 123d
000002b0: 20a2 7fbc 1528 4cbc f215 d9bc 11fc d0bc
000002c0: 901c 8e3c a3db 33bc c78b b8bc bd0a 24bd
000002d0: f459 05bb bf5e 093d c762 c1bc c92f 363d
000002e0: 19a7 423d da2e 2cbd 373d c3ba 2ba5 adbc
000002f0: 5bb7 b6bc af2e 113c 0241 06bd 9d17 86bb
00000300: f20b e53c 3ebc 3c3d 6b86 c3bc 8cc5 003c
00000310: 37ef ad3c e011 653c 8fa1 a43c 0c5e f83b
00000320: 2cf3 02bd e045 e9bc 8446 1f3d dbff fbbc
00000330: 15a5 7bbc 0560 f1bb 8cc0 0fbc 5736 39bd
00000340: 58e8 a93c b2b3 44bd 9510 ffbb a237 0bbd
00000350: ec4d 253d a38d 853c 4aa9 3e3c eec0 14bd
00000360: f5ae edbc 8a18 a1bc 96c9 083d 03af 033d
00000370: 7d42 133d e5c0 863c 1138 753b 8d72 32bd
00000380: 6779 43bd 3a79 40bd c34c 14bd d590 4ab9
00000390: f919 f9bb 62b6 b8bb 1f33 343d 825c 63bb
000003a0: ae24 e4bc 762c e03c 1595 15bd cc9b 07bd
000003b0: 5f1d b8bc 812f 04bd 16c6 2fbd 896b d53c
000003c0: 9f13 3ebd 81cb 46bc 586a debc 20ee 373d
000003d0: 03ca 25bd 13f1 d9bc 0904 d23c 3271 9fbc
000003e0: 2437 a53a cf51 aebb c305 863b 6adf 7e3b
000003f0: eca9 dcbc 36ca 833c c214 ef3b ed37 0dbd

model.1.submodule.2.conv.bias f4 [16]
-0.043129023 0.0146794785 0.00639112 -0.03294387 0.036246788 0.0395559 -0.038935207 -0.013608566
0.021751909 0.025040196 0.01569169 -0.024804395 -0.024848117 0.04179995 0.036481686 -0.008338607
00000000: 0fa8 30bd 3282 703c 9a6c d13b 27f0 06bd
00000010: 8377 143d 5e05 223d 867a 1fbd 76f6 5ebc
00000020: 0f31 b23c 1921 cd3c dc8b 803c 9632 cbbc
00000030: 478e cbbc 6d36 2b3d d26d 153d a79e 08bc

model.2.conv.weight f4 [32, 1, 3, 3, 3]
-0.13834739 0.14912732 -0.11698135 -0.019997505 0.11739513 0.034691893 0.13316602 0.172742
-0.13378982 0.18683618 0.073494524 0.12305459 -0.114613205 -0.070015185 -0.07817328 0.16082685
-0.053583417 -0.038560618 -0.028250992 -0.00031861625 0.027294433 0.061000377 -0.0065674223 0.098789625
-0.026305158 -0.13380107 -0.022058532 -0.13060224 -0.107941054 -0.06823614 -0.06815768 0.1678147
0.17884839 -0.037578296 -0.11763416 -0.13422224 0.13677786 -0.092417 0.00027601325 0.06621682
0.12818174 -0.15597384 0.15833181 -0.05269933 -0.14014044 0.122807935 -0.19212893 0.14892055
0.09347299 -0.13879296 0.08563606 0.16729374 -0.028853217 -0.099075936 0.049022306 0.10564919
-0.12292402 0.17091584 0.08611192 0.17419 -0.10759906 -0.07454854 -0.118697606 0.10448994
0.04885772 0.08470372 -0.12672365 0.009817845 0.014826209 -0.18916737 0.18560831 -0.03694932
0.02626962 0.16635217 -0.07280799 -0.10420752 0.0749191 -0.073029906 0.15639664 0.041043315
-0.12380575 -0.062420405 0.1485415 -0.11782151 0.14378642 -0.08707031 0.06223935 -0.1580603
0.1474657 0.05138419 0.08944282 -0.13157552 -0.1779794 0.031691786 -0.19171247 0.1784492
0.097939394 0.15989186 -0.0409011 0.16362293 0.1847219 -0.13077484 -0.08322232 -0.15471087
0.15056548 -0.18664333 -0.18332809 0.13846813 -0.09478848 -0.0041407724 0.15667231 -0.0717579
0.10132586 0.004746781 0.09452173 -0.08050821 -0.009213787 -0.100413375 -0.014178768 0.062883765
-0.06893107 -0.11509719 -0.09991166 0.04656053 -0.14391579 0.12280349 0.06483235 0.11107679
-0.11778618 0.16961454 0.097906955 0.098181896 0.17746505 -0.12625057 0.024900934 0.13593718
0.10085868 -0.07683412 0.061811164 -0.05200456 0.013708644 0.14067422 -0.08758435 0.190354
-0.047446407 0.0020040385 0.07634817 0.07307721 0.09380826 0.17371762 0.1877372 -0.10973607
0.06615573 0.15722542 0.07363213 -0.049068302 0.14315827 0.1584744 -0.1847353 0.09690871
-0.14472204 0.14776267 -0.04826573 0.100995526 -0.075485535 0.02512292 0.15112244 0.14136367
0.0021520134 0.04726599 0.17765336 -0.1802715 -0.073867716 -0.019464223 0.018554006 -0.005694394
-0.07487177 -0.0071784095 0.18166651 -0.18543822 0.0272569 -0.078207396 0.124667235 0.067932256
-0.04015643 -0.1295747 -0.029047076 -0.15665649 0.13017549 0.18004613 -0.1336013 -0.07714207
-0.010277944 0.09308311 -0.15691073 -0.15290803 -0.07472797 -0.114616394 0.16248217 -0.00960428
-0.13065921 0.16758136 -0.06675623 0.06891334 0.0656578 0.1690199 -0.06740764 0.05749243
0.117136694 -0.024453912 0.086784154 -0.013971764 -0.18086018 -0.11918386 -0.082562104 0.02347916
-0.14776875 0.07429579 -0.16441537 0.10601334 -0.14976572 -0.03789551 -0.07377795 0.057742383
-0.18944418 0.03207104 -0.1121521 -0.14963245 0.15988667 0.031902578 -0.09042826 -0.16349134
-0.04919501 0.16323395 0.11648067 -0.16996142 0.056868047 -0.121590555 0.17484964 -0.056259744
-0.0435429 0.18915454 -0.0811727 -0.052831728 0.11420048 0.033759993 -0.15573134 0.13924946
0.15463531 -0.19227663 0.18794172 -0.016545746 -0.05491799 -0.079733394 -0.04811622 0.10514731
00000000: f0aa 0dbe d5b4 183e eb93 efbd cfd1 a3bc
00000010: dc6c f03d 1619 0e3d ac5c 083e 47e3 303e
00000020: 3300 09be fc51 3f3e 4c84 963d 0b04 fc3d
00000030: 54ba eabd 1f64 8fbd 5019 a0bd cbaf 243e
00000040: 497a 5bbd bdf1 1dbd a06e e7bc f30b a7b9
00000050: 9398 df3c 88db 793d 8833 d7bb 3752 ca3d
00000060: ea7d d7bc 2603 09be 18b4 b4bc 98bc 05be
00000070: 3310 ddbd 64bf 8bbd 4196 8bbd 9ed7 2b3e
00000080: 0824 373e b3eb 19bd 2eea f0bd 8e71 09be
00000090: 7f0f 0c3e 2045 bdbd dfb5 9039 af9c 873d
000000a0: 1342 033e 9bb7 1fbe bc21 223e 41db 57bd
000000b0: fa80 0fbe ba82 fb3d 72bd 44be a17e 183e
000000c0: c46e bf3d be1f 0ebe f561 af3d 0d4f 2b3e
000000d0: 955d ecbc 53e8 cabd 9dcb 483d 9a5e d83d
000000e0: 97bf fbbd 9004 2f3e 725b b03d dd5e 323e
000000f0: e55c dcbd e8ac 98bd bb17 f3bd d2fe d53d
00000100: 081f 483d 2579 ad3d d8c3 01be 07db 203c
00000110: a1e9 723c 17b5 41be 1b10 3e3e 2c58 17bd
00000120: 6333 d73c 3958 2a3e 5b1c 95bd c16a d5bd
00000130: 2f6f 993d b490 95bd 7126 203e 091d 283d
00000140: de8d fdbd 8aac 7fbd 431b 183e 674c f1bd
00000150: bf3c 133e eb51 b2bd b0ee 7e3d 8fda 21be
00000160: 4001 173e 3a78 523d cc2d b73d bcbb 06be
00000170: 3b40 36be 3fcf 013d 4650 44be 63bb 363e
00000180: 7394 c83d b1ba 233e e987 27bd c58c 273e
00000190: bd27 3d3e d7e9 05be 7770 aabd 876c 1ebe
000001a0: d62d 1a3e 6e1f 3fbe 5cba 3bbe 97ca 0d3e
000001b0: 7620 c2bd 51af 87bb b56e 203e cef5 92bd
000001c0: ef83 cf3d e38a 9b3b 9c94 c13d 7de1 a4bd
000001d0: 6cf5 16bc 87a5 cdbd 104e 68bc 34c9 803d
000001e0: bc2b 8dbd 13b8 ebbd 7c9e ccbd 41b6 3e3d
000001f0: a95e 13be 6580 fb3d d3c6 843d 3a7c e33d
00000200: e139 f1bd 6faf 2d3e 7183 c83d 9713 c93d
00000210: 66b9 353e d447 01be 0bfd cb3c 1e33 0b3e
00000220: ff8e ce3d 355b 9dbd b42d 7d3d bc02 55bd
00000230: 389a 603c e70c 103e 6c5f b3bd 29ec 423e
00000240: 2a57 42bd 3056 033b 6e5c 9c3d 81a9 953d
00000250: 8c1e c03d 08e3 313e 2e3e 403e 4ebd e0bd
00000260: a87c 873d b3ff 203e 71cc 963d d8fb 48bd
00000270: 1598 123e 1d47 223e 402b 3dbe 1378 c63d
00000280: 0432 14be 194f 173e 49b2 45bd bed6 ce3d
00000290: 2998 9abd 95ce cd3c d7bf 1a3e a3c1 103e
000002a0: cb08 0d3b fc99 413d c3ea 353e 1899 38be
000002b0: f547 97bd 6f73 9fbc 92fe 973c 0a98 babb
000002c0: 5f56 99bd dd38 ebbb c906 3a3e 84e3 3dbe
000002d0: dd49 df3c 332b a0bd 8951 ff3d 1120 8b3d
000002e0: 127b 24bd 3baf 04be 22f4 edbc 8f6a 20be
000002f0: b94c 053e 035e 383e c7ce 08be a9fc 9dbd
00000300: d264 28bc 5ca2 be3d 35ad 20be ec93 1cbe
00000310: fa0a 99bd 00bc eabd ba61 263e 455b 1dbc
00000320: 87cb 05be 739a 2b3e 7eb7 88bd 7022 8d3d
00000330: 9977 863d 8d13 2d3e 040d 8abd 2f7d 6b3d
00000340: 5de5 ef3d 9253 c8bc e4bb b13d d3e9 64bc
00000350: 6933 39be ab16 f4bd 5216 a9bd 5e57 c03c
00000360: b150 17be 6428 983d 815c 28be 861d d93d
00000370: 2f5c 19be 5338 1bbd e518 97bd 4783 6c3d
00000380: a8fd 41be ec5c 033d 00b0 e5bd 4039 19be
00000390: 55b9 233e 47ac 023d 7432 b9bd 466a 27be
000003a0: b580 49bd cd26 273e 6b8d ee3d 5e0a 2ebe
000003b0: 78ee 683d 7804 f9bd c90b 333e 9e70 66bd
000003c0: 0a5a 32bd bab1 413e df3d a6bd 1566 58bd
000003d0: f1e1 e93d eb47 0a3d 0978 1fbe 6997 0e3e
000003e0: b858 1e3e 2ae4 44be cb73 403e f28a 87bc
000003f0: b0f1 60bd 434b a3bd 8315 45bd 7957 d73d
